onnx_models/saved_model.onnx (onnx, 899 bytes, 2 tensors)

StatefulPartitionedCall/sequential/dense/MatMul/ReadVariableOp:0 f4 [3, 4]
0	0xbdd4f8c0	-0.10399008
1	0xbdbd7e50	-0.09252608
2	0x3e93b413	0.28848323
3	0x3ea05e94	0.31322157
4	0xbf1cdf63	-0.6127836
5	0x3f2dcc9e	0.67890346
6	0x3f6b2632	0.91855156
7	0xbe1d7134	-0.15375215
8	0x3ef7a020	0.48364353
9	0xbf652c70	-0.8952093
10	0xbf0377c6	-0.51354635
11	0x3f55e6a6	0.83555067

StatefulPartitionedCall/sequential/dense/BiasAdd/ReadVariableOp:0 f4 [4]
0	0x00000000	0.0
1	0x00000000	0.0
2	0x3acbef38	0.0015558964
3	0x37d40d70	2.5278627e-05
